…
Loading checkpoint shards:   0%|          | 0/2 [00:00<?, ?it/s]Loading checkpoint shards:  50%|█████     | 1/2 [00:06<00:06,  6.95s/it]Loading checkpoint shards: 100%|██████████| 2/2 [00:10<00:00,  4.92s/it]Loading checkpoint shards: 100%|██████████| 2/2 [00:10<00:00,  5.23s/it]
[INFO:swift] default_system: 'You are Qwen, created by Alibaba Cloud. You are a helpful assistant.'
[INFO:swift] response_prefix: ''
[INFO:swift] agent_template: hermes
[INFO:swift] max_length: 32768
[INFO:swift] norm_bbox: norm1000
[INFO:swift] model: PeftModelForCausalLM(
  (base_model): LoraModel(
    (model): Qwen2ForCausalLM(
      (model): Qwen2Model(
        (embed_tokens): Embedding(151936, 2048)
        (layers): ModuleList(
          (0-35): 36 x Qwen2DecoderLayer(
            (self_attn): Qwen2Attention(
              (q_proj): lora.Linear(
                (base_layer): Linear(in_features=2048, out_features=2048, bias=True)
                (lora_dropout): ModuleDict(
                  (default): Dropout(p=0.05, inplace=False)
                )
                (lora_A): ModuleDict(
                  (default): Linear(in_features=2048, out_features=8, bias=False)
                )
                (lora_B): ModuleDict(
                  (default): Linear(in_features=8, out_features=2048, bias=False)
                )
                (lora_embedding_A): ParameterDict()
                (lora_embedding_B): ParameterDict()
                (lora_magnitude_vector): ModuleDict()
              )
              (k_proj): lora.Linear(
                (base_layer): Linear(in_features=2048, out_features=256, bias=True)
                (lora_dropout): ModuleDict(
                  (default): Dropout(p=0.05, inplace=False)
                )
                (lora_A): ModuleDict(
                  (default): Linear(in_features=2048, out_features=8, bias=False)
                )
                (lora_B): ModuleDict(
                  (default): Linear(in_features=8, out_features=256, bias=False)
                )
                (lora_embedding_A): ParameterDict()
                (lora_embedding_B): ParameterDict()
                (lora_magnitude_vector): ModuleDict()
              )
              (v_proj): lora.Linear(
                (base_layer): Linear(in_features=2048, out_features=256, bias=True)
                (lora_dropout): ModuleDict(
                  (default): Dropout(p=0.05, inplace=False)
                )
                (lora_A): ModuleDict(
                  (default): Linear(in_features=2048, out_features=8, bias=False)
                )
                (lora_B): ModuleDict(
                  (default): Linear(in_features=8, out_features=256, bias=False)
                )
                (lora_embedding_A): ParameterDict()
                (lora_embedding_B): ParameterDict()
                (lora_magnitude_vector): ModuleDict()
              )
              (o_proj): lora.Linear(
                (base_layer): Linear(in_features=2048, out_features=2048, bias=False)
                (lora_dropout): ModuleDict(
                  (default): Dropout(p=0.05, inplace=False)
                )
                (lora_A): ModuleDict(
                  (default): Linear(in_features=2048, out_features=8, bias=False)
                )
                (lora_B): ModuleDict(
                  (default): Linear(in_features=8, out_features=2048, bias=False)
                )
                (lora_embedding_A): ParameterDict()
                (lora_embedding_B): ParameterDict()
                (lora_magnitude_vector): ModuleDict()
              )
            )
            (mlp): Qwen2MLP(
              (gate_proj): lora.Linear(
                (base_layer): Linear(in_features=2048, out_features=11008, bias=False)
                (lora_dropout): ModuleDict(
                  (default): Dropout(p=0.05, inplace=False)
                )
                (lora_A): ModuleDict(
                  (default): Linear(in_features=2048, out_features=8, bias=False)
                )
                (lora_B): ModuleDict(
                  (default): Linear(in_features=8, out_features=11008, bias=False)
                )
                (lora_embedding_A): ParameterDict()
                (lora_embedding_B): ParameterDict()
                (lora_magnitude_vector): ModuleDict()
              )
              (up_proj): lora.Linear(
                (base_layer): Linear(in_features=2048, out_features=11008, bias=False)
                (lora_dropout): ModuleDict(
                  (default): Dropout(p=0.05, inplace=False)
                )
                (lora_A): ModuleDict(
                  (default): Linear(in_features=2048, out_features=8, bias=False)
                )
                (lora_B): ModuleDict(
                  (default): Linear(in_features=8, out_features=11008, bias=False)
                )
                (lora_embedding_A): ParameterDict()
                (lora_embedding_B): ParameterDict()
                (lora_magnitude_vector): ModuleDict()
              )
              (down_proj): lora.Linear(
                (base_layer): Linear(in_features=11008, out_features=2048, bias=False)
                (lora_dropout): ModuleDict(
                  (default): Dropout(p=0.05, inplace=False)
                )
                (lora_A): ModuleDict(
                  (default): Linear(in_features=11008, out_features=8, bias=False)
                )
                (lora_B): ModuleDict(
                  (default): Linear(in_features=8, out_features=2048, bias=False)
                )
                (lora_embedding_A): ParameterDict()
                (lora_embedding_B): ParameterDict()
                (lora_magnitude_vector): ModuleDict()
              )
              (act_fn): SiLU()
            )
            (input_layernorm): Qwen2RMSNorm((2048,), eps=1e-06)
            (post_attention_layernorm): Qwen2RMSNorm((2048,), eps=1e-06)
          )
        )
        (norm): Qwen2RMSNorm((2048,), eps=1e-06)
        (rotary_emb): Qwen2RotaryEmbedding()
      )
      (lm_head): Linear(in_features=2048, out_features=151936, bias=False)
    )
  )
)
[INFO:swift] Start time of running main: 2025-05-05 07:11:56.225825
[INFO:swift] model_list: ['Qwen2.5-3B']
INFO:     Started server process [785640]
INFO:     Waiting for application startup.
INFO:     Application startup complete.
INFO:     Uvicorn running on http://0.0.0.0:8000 (Press CTRL+C to quit)
INFO:     127.0.0.1:37332 - "GET /v1/models HTTP/1.1" 200 OK
…
